Setup Model Config
Setting Up Model
IsolatedVAE(
  (conv1): Conv2d(1, 32, kernel_size=(4, 4), stride=(2, 2), padding=(1, 1))
  (conv1_bn): BatchNorm2d(32, eps=1e-05, momentum=0.1, affine=True, track_running_stats=True)
  (conv2): Conv2d(32, 64, kernel_size=(4, 4), stride=(2, 2), padding=(1, 1))
  (conv2_bn): BatchNorm2d(64, eps=1e-05, momentum=0.1, affine=True, track_running_stats=True)
  (conv3): Conv2d(64, 128, kernel_size=(4, 4), stride=(2, 2), padding=(1, 1))
  (conv3_bn): BatchNorm2d(128, eps=1e-05, momentum=0.1, affine=True, track_running_stats=True)
  (conv4): Conv2d(128, 256, kernel_size=(4, 4), stride=(2, 2), padding=(1, 1))
  (conv4_bn): BatchNorm2d(256, eps=1e-05, momentum=0.1, affine=True, track_running_stats=True)
  (similarity_mean_linear): Linear(in_features=1024, out_features=6, bias=True)
  (uncertainty_linear): Linear(in_features=1024, out_features=1, bias=True)
  (similarity_batchnorm): BatchNorm1d(6, eps=1e-05, momentum=0.1, affine=False, track_running_stats=True)
  (similarity_logvar_linear): Linear(in_features=1024, out_features=6, bias=True)
  (reconstructive_mean_linear): Linear(in_features=1024, out_features=0, bias=True)
  (reconstructive_logvar_linear): Linear(in_features=1024, out_features=0, bias=True)
  (d1): Linear(in_features=6, out_features=1024, bias=True)
  (deconv2): ConvTranspose2d(256, 128, kernel_size=(4, 4), stride=(2, 2), padding=(1, 1))
  (deconv2_bn): BatchNorm2d(128, eps=1e-05, momentum=0.1, affine=True, track_running_stats=True)
  (deconv3): ConvTranspose2d(128, 64, kernel_size=(4, 4), stride=(2, 2), padding=(1, 1))
  (deconv3_bn): BatchNorm2d(64, eps=1e-05, momentum=0.1, affine=True, track_running_stats=True)
  (deconv4): ConvTranspose2d(64, 32, kernel_size=(4, 4), stride=(2, 2), padding=(1, 1))
  (deconv4_bn): BatchNorm2d(32, eps=1e-05, momentum=0.1, affine=True, track_running_stats=True)
  (deconv5): ConvTranspose2d(32, 1, kernel_size=(4, 4), stride=(2, 2), padding=(1, 1))
  (loss_function): BayesianTripletLoss(margin=0.1000)
)
Setting Up Trianer
Running Experiment
Training Model
Starting training ...
../../../auto_localization/training/cycle_consistency_trainer.py:411: UserWarning: Anomaly Detection has been enabled. This mode will increase the runtime and should only be enabled for debugging.
  with torch.autograd.detect_anomaly():
…
